{"keras_version": "2.2.4", "config": {"layers": [{"config": {"input_layers": [["input_1", 0, 0]], "layers": [{"config": {"batch_input_shape": [null, 299, 299, 3], "sparse": false, "dtype": "float32", "name": "input_1"}, "class_name": "InputLayer", "name": "input_1", "inbound_nodes": []}, {"config": {"trainable": true, "padding": [[0, 1], [0, 1]], "data_format": "channels_last", "name": "conv1_pad"}, "class_name": "ZeroPadding2D", "name": "conv1_pad", "inbound_nodes": [[["input_1", 0, 0, {}]]]}, {"config": {"trainable": true, "bias_initializer": {"config": {}, "class_name": "Zeros"}, "strides": [2, 2], "use_bias": false, "kernel_regularizer": null, "bias_regularizer": null, "activity_regularizer": null, "dilation_rate": [1, 1], "name": "conv1", "filters": 32, "padding": "valid", "data_format": "channels_last", "bias_constraint": null, "kernel_size": [3, 3], "kernel_constraint": null, "kernel_initializer": {"config": {"mode": "fan_avg", "distribution": "uniform", "scale": 1.0, "seed": null}, "class_name": "VarianceScaling"}, "activation": "linear"}, "class_name": "Conv2D", "name": "conv1", "inbound_nodes": [[["conv1_pad", 0, 0, {}]]]}, {"config": {"trainable": true, "gamma_initializer": {"config": {}, "class_name": "Ones"}, "moving_variance_initializer": {"config": {}, "class_name": "Ones"}, "beta_initializer": {"config": {}, "class_name": "Zeros"}, "center": true, "momentum": 0.99, "moving_mean_initializer": {"config": {}, "class_name": "Zeros"}, "epsilon": 0.001, "beta_regularizer": null, "scale": true, "name": "conv1_bn", "gamma_constraint": null, "gamma_regularizer": null, "beta_constraint": null, "axis": -1}, "class_name": "BatchNormalization", "name": "conv1_bn", "inbound_nodes": [[["conv1", 0, 0, {}]]]}, {"config": {"threshold": 0.0, "trainable": true, "negative_slope": 0.0, "max_value": 6.0, "name": "conv1_relu"}, "class_name": "ReLU", "name": "conv1_relu", "inbound_nodes": [[["conv1_bn", 0, 0, {}]]]}, {"config": {"trainable": true, "bias_initializer": {"config": {}, "class_name": "Zeros"}, "strides": [1, 1], "use_bias": false, "bias_regularizer": null, "activity_regularizer": null, "dilation_rate": [1, 1], "name": "conv_dw_1", "depthwise_constraint": null, "depth_multiplier": 1, "padding": "same", "data_format": "channels_last", "bias_constraint": null, "kernel_size": [3, 3], "depthwise_regularizer": null, "activation": "linear", "depthwise_initializer": {"config": {"mode": "fan_avg", "distribution": "uniform", "scale": 1.0, "seed": null}, "class_name": "VarianceScaling"}}, "class_name": "DepthwiseConv2D", "name": "conv_dw_1", "inbound_nodes": [[["conv1_relu", 0, 0, {}]]]}, {"config": {"trainable": true, "gamma_initializer": {"config": {}, "class_name": "Ones"}, "moving_variance_initializer": {"config": {}, "class_name": "Ones"}, "beta_initializer": {"config": {}, "class_name": "Zeros"}, "center": true, "momentum": 0.99, "moving_mean_initializer": {"config": {}, "class_name": "Zeros"}, "epsilon": 0.001, "beta_regularizer": null, "scale": true, "name": "conv_dw_1_bn", "gamma_constraint": null, "gamma_regularizer": null, "beta_constraint": null, "axis": -1}, "class_name": "BatchNormalization", "name": "conv_dw_1_bn", "inbound_nodes": [[["conv_dw_1", 0, 0, {}]]]}, {"config": {"threshold": 0.0, "trainable": true, "negative_slope": 0.0, "max_value": 6.0, "name": "conv_dw_1_relu"}, "class_name": "ReLU", "name": "conv_dw_1_relu", "inbound_nodes": [[["conv_dw_1_bn", 0, 0, {}]]]}, {"config": {"trainable": true, "bias_initializer": {"config": {}, "class_name": "Zeros"}, "strides": [1, 1], "use_bias": false, "kernel_regularizer": null, "bias_regularizer": null, "activity_regularizer": null, "dilation_rate": [1, 1], "name": "conv_pw_1", "filters": 64, "padding": "same", "data_format": "channels_last", "bias_constraint": null, "kernel_size": [1, 1], "kernel_constraint": null, "kernel_initializer": {"config": {"mode": "fan_avg", "distribution": "uniform", "scale": 1.0, "seed": null}, "class_name": "VarianceScaling"}, "activation": "linear"}, "class_name": "Conv2D", "name": "conv_pw_1", "inbound_nodes": [[["conv_dw_1_relu", 0, 0, {}]]]}, {"config": {"trainable": true, "gamma_initializer": {"config": {}, "class_name": "Ones"}, "moving_variance_initializer": {"config": {}, "class_name": "Ones"}, "beta_initializer": {"config": {}, "class_name": "Zeros"}, "center": true, "momentum": 0.99, "moving_mean_initializer": {"config": {}, "class_name": "Zeros"}, "epsilon": 0.001, "beta_regularizer": null, "scale": true, "name": "conv_pw_1_bn", "gamma_constraint": null, "gamma_regularizer": null, "beta_constraint": null, "axis": -1}, "class_name": "BatchNormalization", "name": "conv_pw_1_bn", "inbound_nodes": [[["conv_pw_1", 0, 0, {}]]]}, {"config": {"threshold": 0.0, "trainable": true, "negative_slope": 0.0, "max_value": 6.0, "name": "conv_pw_1_relu"}, "class_name": "ReLU", "name": "conv_pw_1_relu", "inbound_nodes": [[["conv_pw_1_bn", 0, 0, {}]]]}, {"config": {"trainable": true, "padding": [[0, 1], [0, 1]], "data_format": "channels_last", "name": "conv_pad_2"}, "class_name": "ZeroPadding2D", "name": "conv_pad_2", "inbound_nodes": [[["conv_pw_1_relu", 0, 0, {}]]]}, {"config": {"trainable": true, "bias_initializer": {"config": {}, "class_name": "Zeros"}, "strides": [2, 2], "use_bias": false, "bias_regularizer": null, "activity_regularizer": null, "dilation_rate": [1, 1], "name": "conv_dw_2", "depthwise_constraint": null, "depth_multiplier": 1, "padding": "valid", "data_format": "channels_last", "bias_constraint": null, "kernel_size": [3, 3], "depthwise_regularizer": null, "activation": "linear", "depthwise_initializer": {"config": {"mode": "fan_avg", "distribution": "uniform", "scale": 1.0, "seed": null}, "class_name": "VarianceScaling"}}, "class_name": "DepthwiseConv2D", "name": "conv_dw_2", "inbound_nodes": [[["conv_pad_2", 0, 0, {}]]]}, {"config": {"trainable": true, "gamma_initializer": {"config": {}, "class_name": "Ones"}, "moving_variance_initializer": {"config": {}, "class_name": "Ones"}, "beta_initializer": {"config": {}, "class_name": "Zeros"}, "center": true, "momentum": 0.99, "moving_mean_initializer": {"config": {}, "class_name": "Zeros"}, "epsilon": 0.001, "beta_regularizer": null, "scale": true, "name": "conv_dw_2_bn", "gamma_constraint": null, "gamma_regularizer": null, "beta_constraint": null, "axis": -1}, "class_name": "BatchNormalization", "name": "conv_dw_2_bn", "inbound_nodes": [[["conv_dw_2", 0, 0, {}]]]}, {"config": {"threshold": 0.0, "trainable": true, "negative_slope": 0.0, "max_value": 6.0, "name": "conv_dw_2_relu"}, "class_name": "ReLU", "name": "conv_dw_2_relu", "inbound_nodes": [[["conv_dw_2_bn", 0, 0, {}]]]}, {"config": {"trainable": true, "bias_initializer": {"config": {}, "class_name": "Zeros"}, "strides": [1, 1], "use_bias": false, "kernel_regularizer": null, "bias_regularizer": null, "activity_regularizer": null, "dilation_rate": [1, 1], "name": "conv_pw_2", "filters": 128, "padding": "same", "data_format": "channels_last", "bias_constraint": null, "kernel_size": [1, 1], "kernel_constraint": null, "kernel_initializer": {"config": {"mode": "fan_avg", "distribution": "uniform", "scale": 1.0, "seed": null}, "class_name": "VarianceScaling"}, "activation": "linear"}, "class_name": "Conv2D", "name": "conv_pw_2", "inbound_nodes": [[["conv_dw_2_relu", 0, 0, {}]]]}, {"config": {"trainable": true, "gamma_initializer": {"config": {}, "class_name": "Ones"}, "moving_variance_initializer": {"config": {}, "class_name": "Ones"}, "beta_initializer": {"config": {}, "class_name": "Zeros"}, "center": true, "momentum": 0.99, "moving_mean_initializer": {"config": {}, "class_name": "Zeros"}, "epsilon": 0.001, "beta_regularizer": null, "scale": true, "name": "conv_pw_2_bn", "gamma_constraint": null, "gamma_regularizer": null, "beta_constraint": null, "axis": -1}, "class_name": "BatchNormalization", "name": "conv_pw_2_bn", "inbound_nodes": [[["conv_pw_2", 0, 0, {}]]]}, {"config": {"threshold": 0.0, "trainable": true, "negative_slope": 0.0, "max_value": 6.0, "name": "conv_pw_2_relu"}, "class_name": "ReLU", "name": "conv_pw_2_relu", "inbound_nodes": [[["conv_pw_2_bn", 0, 0, {}]]]}, {"config": {"trainable": true, "bias_initializer": {"config": {}, "class_name": "Zeros"}, "strides": [1, 1], "use_bias": false, "bias_regularizer": null, "activity_regularizer": null, "dilation_rate": [1, 1], "name": "conv_dw_3", "depthwise_constraint": null, "depth_multiplier": 1, "padding": "same", "data_format": "channels_last", "bias_constraint": null, "kernel_size": [3, 3], "depthwise_regularizer": null, "activation": "linear", "depthwise_initializer": {"config": {"mode": "fan_avg", "distribution": "uniform", "scale": 1.0, "seed": null}, "class_name": "VarianceScaling"}}, "class_name": "DepthwiseConv2D", "name": "conv_dw_3", "inbound_nodes": [[["conv_pw_2_relu", 0, 0, {}]]]}, {"config": {"trainable": true, "gamma_initializer": {"config": {}, "class_name": "Ones"}, "moving_variance_initializer": {"config": {}, "class_name": "Ones"}, "beta_initializer": {"config": {}, "class_name": "Zeros"}, "center": true, "momentum": 0.99, "moving_mean_initializer": {"config": {}, "class_name": "Zeros"}, "epsilon": 0.001, "beta_regularizer": null, "scale": true, "name": "conv_dw_3_bn", "gamma_constraint": null, "gamma_regularizer": null, "beta_constraint": null, "axis": -1}, "class_name": "BatchNormalization", "name": "conv_dw_3_bn", "inbound_nodes": [[["conv_dw_3", 0, 0, {}]]]}, {"config": {"threshold": 0.0, "trainable": true, "negative_slope": 0.0, "max_value": 6.0, "name": "conv_dw_3_relu"}, "class_name": "ReLU", "name": "conv_dw_3_relu", "inbound_nodes": [[["conv_dw_3_bn", 0, 0, {}]]]}, {"config": {"trainable": true, "bias_initializer": {"config": {}, "class_name": "Zeros"}, "strides": [1, 1], "use_bias": false, "kernel_regularizer": null, "bias_regularizer": null, "activity_regularizer": null, "dilation_rate": [1, 1], "name": "conv_pw_3", "filters": 128, "padding": "same", "data_format": "channels_last", "bias_constraint": null, "kernel_size": [1, 1], "kernel_constraint": null, "kernel_initializer": {"config": {"mode": "fan_avg", "distribution": "uniform", "scale": 1.0, "seed": null}, "class_name": "VarianceScaling"}, "activation": "linear"}, "class_name": "Conv2D", "name": "conv_pw_3", "inbound_nodes": [[["conv_dw_3_relu", 0, 0, {}]]]}, {"config": {"trainable": true, "gamma_initializer": {"config": {}, "class_name": "Ones"}, "moving_variance_initializer": {"config": {}, "class_name": "Ones"}, "beta_initializer": {"config": {}, "class_name": "Zeros"}, "center": true, "momentum": 0.99, "moving_mean_initializer": {"config": {}, "class_name": "Zeros"}, "epsilon": 0.001, "beta_regularizer": null, "scale": true, "name": "conv_pw_3_bn", "gamma_constraint": null, "gamma_regularizer": null, "beta_constraint": null, "axis": -1}, "class_name": "BatchNormalization", "name": "conv_pw_3_bn", "inbound_nodes": [[["conv_pw_3", 0, 0, {}]]]}, {"config": {"threshold": 0.0, "trainable": true, "negative_slope": 0.0, "max_value": 6.0, "name": "conv_pw_3_relu"}, "class_name": "ReLU", "name": "conv_pw_3_relu", "inbound_nodes": [[["conv_pw_3_bn", 0, 0, {}]]]}, {"config": {"trainable": true, "padding": [[0, 1], [0, 1]], "data_format": "channels_last", "name": "conv_pad_4"}, "class_name": "ZeroPadding2D", "name": "conv_pad_4", "inbound_nodes": [[["conv_pw_3_relu", 0, 0, {}]]]}, {"config": {"trainable": true, "bias_initializer": {"config": {}, "class_name": "Zeros"}, "strides": [2, 2], "use_bias": false, "bias_regularizer": null, "activity_regularizer": null, "dilation_rate": [1, 1], "name": "conv_dw_4", "depthwise_constraint": null, "depth_multiplier": 1, "padding": "valid", "data_format": "channels_last", "bias_constraint": null, "kernel_size": [3, 3], "depthwise_regularizer": null, "activation": "linear", "depthwise_initializer": {"config": {"mode": "fan_avg", "distribution": "uniform", "scale": 1.0, "seed": null}, "class_name": "VarianceScaling"}}, "class_name": "DepthwiseConv2D", "name": "conv_dw_4", "inbound_nodes": [[["conv_pad_4", 0, 0, {}]]]}, {"config": {"trainable": true, "gamma_initializer": {"config": {}, "class_name": "Ones"}, "moving_variance_initializer": {"config": {}, "class_name": "Ones"}, "beta_initializer": {"config": {}, "class_name": "Zeros"}, "center": true, "momentum": 0.99, "moving_mean_initializer": {"config": {}, "class_name": "Zeros"}, "epsilon": 0.001, "beta_regularizer": null, "scale": true, "name": "conv_dw_4_bn", "gamma_constraint": null, "gamma_regularizer": null, "beta_constraint": null, "axis": -1}, "class_name": "BatchNormalization", "name": "conv_dw_4_bn", "inbound_nodes": [[["conv_dw_4", 0, 0, {}]]]}, {"config": {"threshold": 0.0, "trainable": true, "negative_slope": 0.0, "max_value": 6.0, "name": "conv_dw_4_relu"}, "class_name": "ReLU", "name": "conv_dw_4_relu", "inbound_nodes": [[["conv_dw_4_bn", 0, 0, {}]]]}, {"config": {"trainable": true, "bias_initializer": {"config": {}, "class_name": "Zeros"}, "strides": [1, 1], "use_bias": false, "kernel_regularizer": null, "bias_regularizer": null, "activity_regularizer": null, "dilation_rate": [1, 1], "name": "conv_pw_4", "filters": 256, "padding": "same", "data_format": "channels_last", "bias_constraint": null, "kernel_size": [1, 1], "kernel_constraint": null, "kernel_initializer": {"config": {"mode": "fan_avg", "distribution": "uniform", "scale": 1.0, "seed": null}, "class_name": "VarianceScaling"}, "activation": "linear"}, "class_name": "Conv2D", "name": "conv_pw_4", "inbound_nodes": [[["conv_dw_4_relu", 0, 0, {}]]]}, {"config": {"trainable": true, "gamma_initializer": {"config": {}, "class_name": "Ones"}, "moving_variance_initializer": {"config": {}, "class_name": "Ones"}, "beta_initializer": {"config": {}, "class_name": "Zeros"}, "center": true, "momentum": 0.99, "moving_mean_initializer": {"config": {}, "class_name": "Zeros"}, "epsilon": 0.001, "beta_regularizer": null, "scale": true, "name": "conv_pw_4_bn", "gamma_constraint": null, "gamma_regularizer": null, "beta_constraint": null, "axis": -1}, "class_name": "BatchNormalization", "name": "conv_pw_4_bn", "inbound_nodes": [[["conv_pw_4", 0, 0, {}]]]}, {"config": {"threshold": 0.0, "trainable": true, "negative_slope": 0.0, "max_value": 6.0, "name": "conv_pw_4_relu"}, "class_name": "ReLU", "name": "conv_pw_4_relu", "inbound_nodes": [[["conv_pw_4_bn", 0, 0, {}]]]}, {"config": {"trainable": true, "bias_initializer": {"config": {}, "class_name": "Zeros"}, "strides": [1, 1], "use_bias": false, "bias_regularizer": null, "activity_regularizer": null, "dilation_rate": [1, 1], "name": "conv_dw_5", "depthwise_constraint": null, "depth_multiplier": 1, "padding": "same", "data_format": "channels_last", "bias_constraint": null, "kernel_size": [3, 3], "depthwise_regularizer": null, "activation": "linear", "depthwise_initializer": {"config": {"mode": "fan_avg", "distribution": "uniform", "scale": 1.0, "seed": null}, "class_name": "VarianceScaling"}}, "class_name": "DepthwiseConv2D", "name": "conv_dw_5", "inbound_nodes": [[["conv_pw_4_relu", 0, 0, {}]]]}, {"config": {"trainable": true, "gamma_initializer": {"config": {}, "class_name": "Ones"}, "moving_variance_initializer": {"config": {}, "class_name": "Ones"}, "beta_initializer": {"config": {}, "class_name": "Zeros"}, "center": true, "momentum": 0.99, "moving_mean_initializer": {"config": {}, "class_name": "Zeros"}, "epsilon": 0.001, "beta_regularizer": null, "scale": true, "name": "conv_dw_5_bn", "gamma_constraint": null, "gamma_regularizer": null, "beta_constraint": null, "axis": -1}, "class_name": "BatchNormalization", "name": "conv_dw_5_bn", "inbound_nodes": [[["conv_dw_5", 0, 0, {}]]]}, {"config": {"threshold": 0.0, "trainable": true, "negative_slope": 0.0, "max_value": 6.0, "name": "conv_dw_5_relu"}, "class_name": "ReLU", "name": "conv_dw_5_relu", "inbound_nodes": [[["conv_dw_5_bn", 0, 0, {}]]]}, {"config": {"trainable": true, "bias_initializer": {"config": {}, "class_name": "Zeros"}, "strides": [1, 1], "use_bias": false, "kernel_regularizer": null, "bias_regularizer": null, "activity_regularizer": null, "dilation_rate": [1, 1], "name": "conv_pw_5", "filters": 256, "padding": "same", "data_format": "channels_last", "bias_constraint": null, "kernel_size": [1, 1], "kernel_constraint": null, "kernel_initializer": {"config": {"mode": "fan_avg", "distribution": "uniform", "scale": 1.0, "seed": null}, "class_name": "VarianceScaling"}, "activation": "linear"}, "class_name": "Conv2D", "name": "conv_pw_5", "inbound_nodes": [[["conv_dw_5_relu", 0, 0, {}]]]}, {"config": {"trainable": true, "gamma_initializer": {"config": {}, "class_name": "Ones"}, "moving_variance_initializer": {"config": {}, "class_name": "Ones"}, "beta_initializer": {"config": {}, "class_name": "Zeros"}, "center": true, "momentum": 0.99, "moving_mean_initializer": {"config": {}, "class_name": "Zeros"}, "epsilon": 0.001, "beta_regularizer": null, "scale": true, "name": "conv_pw_5_bn", "gamma_constraint": null, "gamma_regularizer": null, "beta_constraint": null, "axis": -1}, "class_name": "BatchNormalization", "name": "conv_pw_5_bn", "inbound_nodes": [[["conv_pw_5", 0, 0, {}]]]}, {"config": {"threshold": 0.0, "trainable": true, "negative_slope": 0.0, "max_value": 6.0, "name": "conv_pw_5_relu"}, "class_name": "ReLU", "name": "conv_pw_5_relu", "inbound_nodes": [[["conv_pw_5_bn", 0, 0, {}]]]}, {"config": {"trainable": true, "padding": [[0, 1], [0, 1]], "data_format": "channels_last", "name": "conv_pad_6"}, "class_name": "ZeroPadding2D", "name": "conv_pad_6", "inbound_nodes": [[["conv_pw_5_relu", 0, 0, {}]]]}, {"config": {"trainable": true, "bias_initializer": {"config": {}, "class_name": "Zeros"}, "strides": [2, 2], "use_bias": false, "bias_regularizer": null, "activity_regularizer": null, "dilation_rate": [1, 1], "name": "conv_dw_6", "depthwise_constraint": null, "depth_multiplier": 1, "padding": "valid", "data_format": "channels_last", "bias_constraint": null, "kernel_size": [3, 3], "depthwise_regularizer": null, "activation": "linear", "depthwise_initializer": {"config": {"mode": "fan_avg", "distribution": "uniform", "scale": 1.0, "seed": null}, "class_name": "VarianceScaling"}}, "class_name": "DepthwiseConv2D", "name": "conv_dw_6", "inbound_nodes": [[["conv_pad_6", 0, 0, {}]]]}, {"config": {"trainable": true, "gamma_initializer": {"config": {}, "class_name": "Ones"}, "moving_variance_initializer": {"config": {}, "class_name": "Ones"}, "beta_initializer": {"config": {}, "class_name": "Zeros"}, "center": true, "momentum": 0.99, "moving_mean_initializer": {"config": {}, "class_name": "Zeros"}, "epsilon": 0.001, "beta_regularizer": null, "scale": true, "name": "conv_dw_6_bn", "gamma_constraint": null, "gamma_regularizer": null, "beta_constraint": null, "axis": -1}, "class_name": "BatchNormalization", "name": "conv_dw_6_bn", "inbound_nodes": [[["conv_dw_6", 0, 0, {}]]]}, {"config": {"threshold": 0.0, "trainable": true, "negative_slope": 0.0, "max_value": 6.0, "name": "conv_dw_6_relu"}, "class_name": "ReLU", "name": "conv_dw_6_relu", "inbound_nodes": [[["conv_dw_6_bn", 0, 0, {}]]]}, {"config": {"trainable": true, "bias_initializer": {"config": {}, "class_name": "Zeros"}, "strides": [1, 1], "use_bias": false, "kernel_regularizer": null, "bias_regularizer": null, "activity_regularizer": null, "dilation_rate": [1, 1], "name": "conv_pw_6", "filters": 512, "padding": "same", "data_format": "channels_last", "bias_constraint": null, "kernel_size": [1, 1], "kernel_constraint": null, "kernel_initializer": {"config": {"mode": "fan_avg", "distribution": "uniform", "scale": 1.0, "seed": null}, "class_name": "VarianceScaling"}, "activation": "linear"}, "class_name": "Conv2D", "name": "conv_pw_6", "inbound_nodes": [[["conv_dw_6_relu", 0, 0, {}]]]}, {"config": {"trainable": true, "gamma_initializer": {"config": {}, "class_name": "Ones"}, "moving_variance_initializer": {"config": {}, "class_name": "Ones"}, "beta_initializer": {"config": {}, "class_name": "Zeros"}, "center": true, "momentum": 0.99, "moving_mean_initializer": {"config": {}, "class_name": "Zeros"}, "epsilon": 0.001, "beta_regularizer": null, "scale": true, "name": "conv_pw_6_bn", "gamma_constraint": null, "gamma_regularizer": null, "beta_constraint": null, "axis": -1}, "class_name": "BatchNormalization", "name": "conv_pw_6_bn", "inbound_nodes": [[["conv_pw_6", 0, 0, {}]]]}, {"config": {"threshold": 0.0, "trainable": true, "negative_slope": 0.0, "max_value": 6.0, "name": "conv_pw_6_relu"}, "class_name": "ReLU", "name": "conv_pw_6_relu", "inbound_nodes": [[["conv_pw_6_bn", 0, 0, {}]]]}, {"config": {"trainable": true, "bias_initializer": {"config": {}, "class_name": "Zeros"}, "strides": [1, 1], "use_bias": false, "bias_regularizer": null, "activity_regularizer": null, "dilation_rate": [1, 1], "name": "conv_dw_7", "depthwise_constraint": null, "depth_multiplier": 1, "padding": "same", "data_format": "channels_last", "bias_constraint": null, "kernel_size": [3, 3], "depthwise_regularizer": null, "activation": "linear", "depthwise_initializer": {"config": {"mode": "fan_avg", "distribution": "uniform", "scale": 1.0, "seed": null}, "class_name": "VarianceScaling"}}, "class_name": "DepthwiseConv2D", "name": "conv_dw_7", "inbound_nodes": [[["conv_pw_6_relu", 0, 0, {}]]]}, {"config": {"trainable": true, "gamma_initializer": {"config": {}, "class_name": "Ones"}, "moving_variance_initializer": {"config": {}, "class_name": "Ones"}, "beta_initializer": {"config": {}, "class_name": "Zeros"}, "center": true, "momentum": 0.99, "moving_mean_initializer": {"config": {}, "class_name": "Zeros"}, "epsilon": 0.001, "beta_regularizer": null, "scale": true, "name": "conv_dw_7_bn", "gamma_constraint": null, "gamma_regularizer": null, "beta_constraint": null, "axis": -1}, "class_name": "BatchNormalization", "name": "conv_dw_7_bn", "inbound_nodes": [[["conv_dw_7", 0, 0, {}]]]}, {"config": {"threshold": 0.0, "trainable": true, "negative_slope": 0.0, "max_value": 6.0, "name": "conv_dw_7_relu"}, "class_name": "ReLU", "name": "conv_dw_7_relu", "inbound_nodes": [[["conv_dw_7_bn", 0, 0, {}]]]}, {"config": {"trainable": true, "bias_initializer": {"config": {}, "class_name": "Zeros"}, "strides": [1, 1], "use_bias": false, "kernel_regularizer": null, "bias_regularizer": null, "activity_regularizer": null, "dilation_rate": [1, 1], "name": "conv_pw_7", "filters": 512, "padding": "same", "data_format": "channels_last", "bias_constraint": null, "kernel_size": [1, 1], "kernel_constraint": null, "kernel_initializer": {"config": {"mode": "fan_avg", "distribution": "uniform", "scale": 1.0, "seed": null}, "class_name": "VarianceScaling"}, "activation": "linear"}, "class_name": "Conv2D", "name": "conv_pw_7", "inbound_nodes": [[["conv_dw_7_relu", 0, 0, {}]]]}, {"config": {"trainable": true, "gamma_initializer": {"config": {}, "class_name": "Ones"}, "moving_variance_initializer": {"config": {}, "class_name": "Ones"}, "beta_initializer": {"config": {}, "class_name": "Zeros"}, "center": true, "momentum": 0.99, "moving_mean_initializer": {"config": {}, "class_name": "Zeros"}, "epsilon": 0.001, "beta_regularizer": null, "scale": true, "name": "conv_pw_7_bn", "gamma_constraint": null, "gamma_regularizer": null, "beta_constraint": null, "axis": -1}, "class_name": "BatchNormalization", "name": "conv_pw_7_bn", "inbound_nodes": [[["conv_pw_7", 0, 0, {}]]]}, {"config": {"threshold": 0.0, "trainable": true, "negative_slope": 0.0, "max_value": 6.0, "name": "conv_pw_7_relu"}, "class_name": "ReLU", "name": "conv_pw_7_relu", "inbound_nodes": [[["conv_pw_7_bn", 0, 0, {}]]]}, {"config": {"trainable": true, "bias_initializer": {"config": {}, "class_name": "Zeros"}, "strides": [1, 1], "use_bias": false, "bias_regularizer": null, "activity_regularizer": null, "dilation_rate": [1, 1], "name": "conv_dw_8", "depthwise_constraint": null, "depth_multiplier": 1, "padding": "same", "data_format": "channels_last", "bias_constraint": null, "kernel_size": [3, 3], "depthwise_regularizer": null, "activation": "linear", "depthwise_initializer": {"config": {"mode": "fan_avg", "distribution": "uniform", "scale": 1.0, "seed": null}, "class_name": "VarianceScaling"}}, "class_name": "DepthwiseConv2D", "name": "conv_dw_8", "inbound_nodes": [[["conv_pw_7_relu", 0, 0, {}]]]}, {"config": {"trainable": true, "gamma_initializer": {"config": {}, "class_name": "Ones"}, "moving_variance_initializer": {"config": {}, "class_name": "Ones"}, "beta_initializer": {"config": {}, "class_name": "Zeros"}, "center": true, "momentum": 0.99, "moving_mean_initializer": {"config": {}, "class_name": "Zeros"}, "epsilon": 0.001, "beta_regularizer": null, "scale": true, "name": "conv_dw_8_bn", "gamma_constraint": null, "gamma_regularizer": null, "beta_constraint": null, "axis": -1}, "class_name": "BatchNormalization", "name": "conv_dw_8_bn", "inbound_nodes": [[["conv_dw_8", 0, 0, {}]]]}, {"config": {"threshold": 0.0, "trainable": true, "negative_slope": 0.0, "max_value": 6.0, "name": "conv_dw_8_relu"}, "class_name": "ReLU", "name": "conv_dw_8_relu", "inbound_nodes": [[["conv_dw_8_bn", 0, 0, {}]]]}, {"config": {"trainable": true, "bias_initializer": {"config": {}, "class_name": "Zeros"}, "strides": [1, 1], "use_bias": false, "kernel_regularizer": null, "bias_regularizer": null, "activity_regularizer": null, "dilation_rate": [1, 1], "name": "conv_pw_8", "filters": 512, "padding": "same", "data_format": "channels_last", "bias_constraint": null, "kernel_size": [1, 1], "kernel_constraint": null, "kernel_initializer": {"config": {"mode": "fan_avg", "distribution": "uniform", "scale": 1.0, "seed": null}, "class_name": "VarianceScaling"}, "activation": "linear"}, "class_name": "Conv2D", "name": "conv_pw_8", "inbound_nodes": [[["conv_dw_8_relu", 0, 0, {}]]]}, {"config": {"trainable": true, "gamma_initializer": {"config": {}, "class_name": "Ones"}, "moving_variance_initializer": {"config": {}, "class_name": "Ones"}, "beta_initializer": {"config": {}, "class_name": "Zeros"}, "center": true, "momentum": 0.99, "moving_mean_initializer": {"config": {}, "class_name": "Zeros"}, "epsilon": 0.001, "beta_regularizer": null, "scale": true, "name": "conv_pw_8_bn", "gamma_constraint": null, "gamma_regularizer": null, "beta_constraint": null, "axis": -1}, "class_name": "BatchNormalization", "name": "conv_pw_8_bn", "inbound_nodes": [[["conv_pw_8", 0, 0, {}]]]}, {"config": {"threshold": 0.0, "trainable": true, "negative_slope": 0.0, "max_value": 6.0, "name": "conv_pw_8_relu"}, "class_name": "ReLU", "name": "conv_pw_8_relu", "inbound_nodes": [[["conv_pw_8_bn", 0, 0, {}]]]}, {"config": {"trainable": true, "bias_initializer": {"config": {}, "class_name": "Zeros"}, "strides": [1, 1], "use_bias": false, "bias_regularizer": null, "activity_regularizer": null, "dilation_rate": [1, 1], "name": "conv_dw_9", "depthwise_constraint": null, "depth_multiplier": 1, "padding": "same", "data_format": "channels_last", "bias_constraint": null, "kernel_size": [3, 3], "depthwise_regularizer": null, "activation": "linear", "depthwise_initializer": {"config": {"mode": "fan_avg", "distribution": "uniform", "scale": 1.0, "seed": null}, "class_name": "VarianceScaling"}}, "class_name": "DepthwiseConv2D", "name": "conv_dw_9", "inbound_nodes": [[["conv_pw_8_relu", 0, 0, {}]]]}, {"config": {"trainable": true, "gamma_initializer": {"config": {}, "class_name": "Ones"}, "moving_variance_initializer": {"config": {}, "class_name": "Ones"}, "beta_initializer": {"config": {}, "class_name": "Zeros"}, "center": true, "momentum": 0.99, "moving_mean_initializer": {"config": {}, "class_name": "Zeros"}, "epsilon": 0.001, "beta_regularizer": null, "scale": true, "name": "conv_dw_9_bn", "gamma_constraint": null, "gamma_regularizer": null, "beta_constraint": null, "axis": -1}, "class_name": "BatchNormalization", "name": "conv_dw_9_bn", "inbound_nodes": [[["conv_dw_9", 0, 0, {}]]]}, {"config": {"threshold": 0.0, "trainable": true, "negative_slope": 0.0, "max_value": 6.0, "name": "conv_dw_9_relu"}, "class_name": "ReLU", "name": "conv_dw_9_relu", "inbound_nodes": [[["conv_dw_9_bn", 0, 0, {}]]]}, {"config": {"trainable": true, "bias_initializer": {"config": {}, "class_name": "Zeros"}, "strides": [1, 1], "use_bias": false, "kernel_regularizer": null, "bias_regularizer": null, "activity_regularizer": null, "dilation_rate": [1, 1], "name": "conv_pw_9", "filters": 512, "padding": "same", "data_format": "channels_last", "bias_constraint": null, "kernel_size": [1, 1], "kernel_constraint": null, "kernel_initializer": {"config": {"mode": "fan_avg", "distribution": "uniform", "scale": 1.0, "seed": null}, "class_name": "VarianceScaling"}, "activation": "linear"}, "class_name": "Conv2D", "name": "conv_pw_9", "inbound_nodes": [[["conv_dw_9_relu", 0, 0, {}]]]}, {"config": {"trainable": true, "gamma_initializer": {"config": {}, "class_name": "Ones"}, "moving_variance_initializer": {"config": {}, "class_name": "Ones"}, "beta_initializer": {"config": {}, "class_name": "Zeros"}, "center": true, "momentum": 0.99, "moving_mean_initializer": {"config": {}, "class_name": "Zeros"}, "epsilon": 0.001, "beta_regularizer": null, "scale": true, "name": "conv_pw_9_bn", "gamma_constraint": null, "gamma_regularizer": null, "beta_constraint": null, "axis": -1}, "class_name": "BatchNormalization", "name": "conv_pw_9_bn", "inbound_nodes": [[["conv_pw_9", 0, 0, {}]]]}, {"config": {"threshold": 0.0, "trainable": true, "negative_slope": 0.0, "max_value": 6.0, "name": "conv_pw_9_relu"}, "class_name": "ReLU", "name": "conv_pw_9_relu", "inbound_nodes": [[["conv_pw_9_bn", 0, 0, {}]]]}, {"config": {"trainable": true, "bias_initializer": {"config": {}, "class_name": "Zeros"}, "strides": [1, 1], "use_bias": false, "bias_regularizer": null, "activity_regularizer": null, "dilation_rate": [1, 1], "name": "conv_dw_10", "depthwise_constraint": null, "depth_multiplier": 1, "padding": "same", "data_format": "channels_last", "bias_constraint": null, "kernel_size": [3, 3], "depthwise_regularizer": null, "activation": "linear", "depthwise_initializer": {"config": {"mode": "fan_avg", "distribution": "uniform", "scale": 1.0, "seed": null}, "class_name": "VarianceScaling"}}, "class_name": "DepthwiseConv2D", "name": "conv_dw_10", "inbound_nodes": [[["conv_pw_9_relu", 0, 0, {}]]]}, {"config": {"trainable": true, "gamma_initializer": {"config": {}, "class_name": "Ones"}, "moving_variance_initializer": {"config": {}, "class_name": "Ones"}, "beta_initializer": {"config": {}, "class_name": "Zeros"}, "center": true, "momentum": 0.99, "moving_mean_initializer": {"config": {}, "class_name": "Zeros"}, "epsilon": 0.001, "beta_regularizer": null, "scale": true, "name": "conv_dw_10_bn", "gamma_constraint": null, "gamma_regularizer": null, "beta_constraint": null, "axis": -1}, "class_name": "BatchNormalization", "name": "conv_dw_10_bn", "inbound_nodes": [[["conv_dw_10", 0, 0, {}]]]}, {"config": {"threshold": 0.0, "trainable": true, "negative_slope": 0.0, "max_value": 6.0, "name": "conv_dw_10_relu"}, "class_name": "ReLU", "name": "conv_dw_10_relu", "inbound_nodes": [[["conv_dw_10_bn", 0, 0, {}]]]}, {"config": {"trainable": true, "bias_initializer": {"config": {}, "class_name": "Zeros"}, "strides": [1, 1], "use_bias": false, "kernel_regularizer": null, "bias_regularizer": null, "activity_regularizer": null, "dilation_rate": [1, 1], "name": "conv_pw_10", "filters": 512, "padding": "same", "data_format": "channels_last", "bias_constraint": null, "kernel_size": [1, 1], "kernel_constraint": null, "kernel_initializer": {"config": {"mode": "fan_avg", "distribution": "uniform", "scale": 1.0, "seed": null}, "class_name": "VarianceScaling"}, "activation": "linear"}, "class_name": "Conv2D", "name": "conv_pw_10", "inbound_nodes": [[["conv_dw_10_relu", 0, 0, {}]]]}, {"config": {"trainable": true, "gamma_initializer": {"config": {}, "class_name": "Ones"}, "moving_variance_initializer": {"config": {}, "class_name": "Ones"}, "beta_initializer": {"config": {}, "class_name": "Zeros"}, "center": true, "momentum": 0.99, "moving_mean_initializer": {"config": {}, "class_name": "Zeros"}, "epsilon": 0.001, "beta_regularizer": null, "scale": true, "name": "conv_pw_10_bn", "gamma_constraint": null, "gamma_regularizer": null, "beta_constraint": null, "axis": -1}, "class_name": "BatchNormalization", "name": "conv_pw_10_bn", "inbound_nodes": [[["conv_pw_10", 0, 0, {}]]]}, {"config": {"threshold": 0.0, "trainable": true, "negative_slope": 0.0, "max_value": 6.0, "name": "conv_pw_10_relu"}, "class_name": "ReLU", "name": "conv_pw_10_relu", "inbound_nodes": [[["conv_pw_10_bn", 0, 0, {}]]]}, {"config": {"trainable": true, "bias_initializer": {"config": {}, "class_name": "Zeros"}, "strides": [1, 1], "use_bias": false, "bias_regularizer": null, "activity_regularizer": null, "dilation_rate": [1, 1], "name": "conv_dw_11", "depthwise_constraint": null, "depth_multiplier": 1, "padding": "same", "data_format": "channels_last", "bias_constraint": null, "kernel_size": [3, 3], "depthwise_regularizer": null, "activation": "linear", "depthwise_initializer": {"config": {"mode": "fan_avg", "distribution": "uniform", "scale": 1.0, "seed": null}, "class_name": "VarianceScaling"}}, "class_name": "DepthwiseConv2D", "name": "conv_dw_11", "inbound_nodes": [[["conv_pw_10_relu", 0, 0, {}]]]}, {"config": {"trainable": true, "gamma_initializer": {"config": {}, "class_name": "Ones"}, "moving_variance_initializer": {"config": {}, "class_name": "Ones"}, "beta_initializer": {"config": {}, "class_name": "Zeros"}, "center": true, "momentum": 0.99, "moving_mean_initializer": {"config": {}, "class_name": "Zeros"}, "epsilon": 0.001, "beta_regularizer": null, "scale": true, "name": "conv_dw_11_bn", "gamma_constraint": null, "gamma_regularizer": null, "beta_constraint": null, "axis": -1}, "class_name": "BatchNormalization", "name": "conv_dw_11_bn", "inbound_nodes": [[["conv_dw_11", 0, 0, {}]]]}, {"config": {"threshold": 0.0, "trainable": true, "negative_slope": 0.0, "max_value": 6.0, "name": "conv_dw_11_relu"}, "class_name": "ReLU", "name": "conv_dw_11_relu", "inbound_nodes": [[["conv_dw_11_bn", 0, 0, {}]]]}, {"config": {"trainable": true, "bias_initializer": {"config": {}, "class_name": "Zeros"}, "strides": [1, 1], "use_bias": false, "kernel_regularizer": null, "bias_regularizer": null, "activity_regularizer": null, "dilation_rate": [1, 1], "name": "conv_pw_11", "filters": 512, "padding": "same", "data_format": "channels_last", "bias_constraint": null, "kernel_size": [1, 1], "kernel_constraint": null, "kernel_initializer": {"config": {"mode": "fan_avg", "distribution": "uniform", "scale": 1.0, "seed": null}, "class_name": "VarianceScaling"}, "activation": "linear"}, "class_name": "Conv2D", "name": "conv_pw_11", "inbound_nodes": [[["conv_dw_11_relu", 0, 0, {}]]]}, {"config": {"trainable": true, "gamma_initializer": {"config": {}, "class_name": "Ones"}, "moving_variance_initializer": {"config": {}, "class_name": "Ones"}, "beta_initializer": {"config": {}, "class_name": "Zeros"}, "center": true, "momentum": 0.99, "moving_mean_initializer": {"config": {}, "class_name": "Zeros"}, "epsilon": 0.001, "beta_regularizer": null, "scale": true, "name": "conv_pw_11_bn", "gamma_constraint": null, "gamma_regularizer": null, "beta_constraint": null, "axis": -1}, "class_name": "BatchNormalization", "name": "conv_pw_11_bn", "inbound_nodes": [[["conv_pw_11", 0, 0, {}]]]}, {"config": {"threshold": 0.0, "trainable": true, "negative_slope": 0.0, "max_value": 6.0, "name": "conv_pw_11_relu"}, "class_name": "ReLU", "name": "conv_pw_11_relu", "inbound_nodes": [[["conv_pw_11_bn", 0, 0, {}]]]}, {"config": {"trainable": true, "padding": [[0, 1], [0, 1]], "data_format": "channels_last", "name": "conv_pad_12"}, "class_name": "ZeroPadding2D", "name": "conv_pad_12", "inbound_nodes": [[["conv_pw_11_relu", 0, 0, {}]]]}, {"config": {"trainable": true, "bias_initializer": {"config": {}, "class_name": "Zeros"}, "strides": [2, 2], "use_bias": false, "bias_regularizer": null, "activity_regularizer": null, "dilation_rate": [1, 1], "name": "conv_dw_12", "depthwise_constraint": null, "depth_multiplier": 1, "padding": "valid", "data_format": "channels_last", "bias_constraint": null, "kernel_size": [3, 3], "depthwise_regularizer": null, "activation": "linear", "depthwise_initializer": {"config": {"mode": "fan_avg", "distribution": "uniform", "scale": 1.0, "seed": null}, "class_name": "VarianceScaling"}}, "class_name": "DepthwiseConv2D", "name": "conv_dw_12", "inbound_nodes": [[["conv_pad_12", 0, 0, {}]]]}, {"config": {"trainable": true, "gamma_initializer": {"config": {}, "class_name": "Ones"}, "moving_variance_initializer": {"config": {}, "class_name": "Ones"}, "beta_initializer": {"config": {}, "class_name": "Zeros"}, "center": true, "momentum": 0.99, "moving_mean_initializer": {"config": {}, "class_name": "Zeros"}, "epsilon": 0.001, "beta_regularizer": null, "scale": true, "name": "conv_dw_12_bn", "gamma_constraint": null, "gamma_regularizer": null, "beta_constraint": null, "axis": -1}, "class_name": "BatchNormalization", "name": "conv_dw_12_bn", "inbound_nodes": [[["conv_dw_12", 0, 0, {}]]]}, {"config": {"threshold": 0.0, "trainable": true, "negative_slope": 0.0, "max_value": 6.0, "name": "conv_dw_12_relu"}, "class_name": "ReLU", "name": "conv_dw_12_relu", "inbound_nodes": [[["conv_dw_12_bn", 0, 0, {}]]]}, {"config": {"trainable": true, "bias_initializer": {"config": {}, "class_name": "Zeros"}, "strides": [1, 1], "use_bias": false, "kernel_regularizer": null, "bias_regularizer": null, "activity_regularizer": null, "dilation_rate": [1, 1], "name": "conv_pw_12", "filters": 1024, "padding": "same", "data_format": "channels_last", "bias_constraint": null, "kernel_size": [1, 1], "kernel_constraint": null, "kernel_initializer": {"config": {"mode": "fan_avg", "distribution": "uniform", "scale": 1.0, "seed": null}, "class_name": "VarianceScaling"}, "activation": "linear"}, "class_name": "Conv2D", "name": "conv_pw_12", "inbound_nodes": [[["conv_dw_12_relu", 0, 0, {}]]]}, {"config": {"trainable": true, "gamma_initializer": {"config": {}, "class_name": "Ones"}, "moving_variance_initializer": {"config": {}, "class_name": "Ones"}, "beta_initializer": {"config": {}, "class_name": "Zeros"}, "center": true, "momentum": 0.99, "moving_mean_initializer": {"config": {}, "class_name": "Zeros"}, "epsilon": 0.001, "beta_regularizer": null, "scale": true, "name": "conv_pw_12_bn", "gamma_constraint": null, "gamma_regularizer": null, "beta_constraint": null, "axis": -1}, "class_name": "BatchNormalization", "name": "conv_pw_12_bn", "inbound_nodes": [[["conv_pw_12", 0, 0, {}]]]}, {"config": {"threshold": 0.0, "trainable": true, "negative_slope": 0.0, "max_value": 6.0, "name": "conv_pw_12_relu"}, "class_name": "ReLU", "name": "conv_pw_12_relu", "inbound_nodes": [[["conv_pw_12_bn", 0, 0, {}]]]}, {"config": {"trainable": true, "bias_initializer": {"config": {}, "class_name": "Zeros"}, "strides": [1, 1], "use_bias": false, "bias_regularizer": null, "activity_regularizer": null, "dilation_rate": [1, 1], "name": "conv_dw_13", "depthwise_constraint": null, "depth_multiplier": 1, "padding": "same", "data_format": "channels_last", "bias_constraint": null, "kernel_size": [3, 3], "depthwise_regularizer": null, "activation": "linear", "depthwise_initializer": {"config": {"mode": "fan_avg", "distribution": "uniform", "scale": 1.0, "seed": null}, "class_name": "VarianceScaling"}}, "class_name": "DepthwiseConv2D", "name": "conv_dw_13", "inbound_nodes": [[["conv_pw_12_relu", 0, 0, {}]]]}, {"config": {"trainable": true, "gamma_initializer": {"config": {}, "class_name": "Ones"}, "moving_variance_initializer": {"config": {}, "class_name": "Ones"}, "beta_initializer": {"config": {}, "class_name": "Zeros"}, "center": true, "momentum": 0.99, "moving_mean_initializer": {"config": {}, "class_name": "Zeros"}, "epsilon": 0.001, "beta_regularizer": null, "scale": true, "name": "conv_dw_13_bn", "gamma_constraint": null, "gamma_regularizer": null, "beta_constraint": null, "axis": -1}, "class_name": "BatchNormalization", "name": "conv_dw_13_bn", "inbound_nodes": [[["conv_dw_13", 0, 0, {}]]]}, {"config": {"threshold": 0.0, "trainable": true, "negative_slope": 0.0, "max_value": 6.0, "name": "conv_dw_13_relu"}, "class_name": "ReLU", "name": "conv_dw_13_relu", "inbound_nodes": [[["conv_dw_13_bn", 0, 0, {}]]]}, {"config": {"trainable": true, "bias_initializer": {"config": {}, "class_name": "Zeros"}, "strides": [1, 1], "use_bias": false, "kernel_regularizer": null, "bias_regularizer": null, "activity_regularizer": null, "dilation_rate": [1, 1], "name": "conv_pw_13", "filters": 1024, "padding": "same", "data_format": "channels_last", "bias_constraint": null, "kernel_size": [1, 1], "kernel_constraint": null, "kernel_initializer": {"config": {"mode": "fan_avg", "distribution": "uniform", "scale": 1.0, "seed": null}, "class_name": "VarianceScaling"}, "activation": "linear"}, "class_name": "Conv2D", "name": "conv_pw_13", "inbound_nodes": [[["conv_dw_13_relu", 0, 0, {}]]]}, {"config": {"trainable": true, "gamma_initializer": {"config": {}, "class_name": "Ones"}, "moving_variance_initializer": {"config": {}, "class_name": "Ones"}, "beta_initializer": {"config": {}, "class_name": "Zeros"}, "center": true, "momentum": 0.99, "moving_mean_initializer": {"config": {}, "class_name": "Zeros"}, "epsilon": 0.001, "beta_regularizer": null, "scale": true, "name": "conv_pw_13_bn", "gamma_constraint": null, "gamma_regularizer": null, "beta_constraint": null, "axis": -1}, "class_name": "BatchNormalization", "name": "conv_pw_13_bn", "inbound_nodes": [[["conv_pw_13", 0, 0, {}]]]}, {"config": {"threshold": 0.0, "trainable": true, "negative_slope": 0.0, "max_value": 6.0, "name": "conv_pw_13_relu"}, "class_name": "ReLU", "name": "conv_pw_13_relu", "inbound_nodes": [[["conv_pw_13_bn", 0, 0, {}]]]}], "output_layers": [["conv_pw_13_relu", 0, 0]], "name": "mobilenet_1.00_299"}, "class_name": "Model"}, {"config": {"input_layers": [["feature_input", 0, 0]], "layers": [{"config": {"batch_input_shape": [null, 9, 9, 1024], "sparse": false, "dtype": "float32", "name": "feature_input"}, "class_name": "InputLayer", "name": "feature_input", "inbound_nodes": []}, {"config": {"trainable": true, "gamma_initializer": {"config": {}, "class_name": "Ones"}, "moving_variance_initializer": {"config": {}, "class_name": "Ones"}, "beta_initializer": {"config": {}, "class_name": "Zeros"}, "center": true, "momentum": 0.99, "moving_mean_initializer": {"config": {}, "class_name": "Zeros"}, "epsilon": 0.001, "beta_regularizer": null, "scale": true, "name": "batch_normalization_1", "gamma_constraint": null, "gamma_regularizer": null, "beta_constraint": null, "axis": -1}, "class_name": "BatchNormalization", "name": "batch_normalization_1", "inbound_nodes": [[["feature_input", 0, 0, {}]]]}, {"config": {"trainable": true, "bias_initializer": {"config": {}, "class_name": "Zeros"}, "strides": [1, 1], "use_bias": true, "kernel_regularizer": null, "bias_regularizer": null, "activity_regularizer": null, "dilation_rate": [1, 1], "name": "conv2d_1", "filters": 128, "padding": "same", "data_format": "channels_last", "bias_constraint": null, "kernel_size": [1, 1], "kernel_constraint": null, "kernel_initializer": {"config": {"mode": "fan_avg", "distribution": "uniform", "scale": 1.0, "seed": null}, "class_name": "VarianceScaling"}, "activation": "elu"}, "class_name": "Conv2D", "name": "conv2d_1", "inbound_nodes": [[["batch_normalization_1", 0, 0, {}]]]}, {"config": {"trainable": true, "bias_initializer": {"config": {}, "class_name": "Zeros"}, "strides": [1, 1], "use_bias": true, "kernel_regularizer": null, "bias_regularizer": null, "activity_regularizer": null, "dilation_rate": [1, 1], "name": "conv2d_2", "filters": 32, "padding": "same", "data_format": "channels_last", "bias_constraint": null, "kernel_size": [1, 1], "kernel_constraint": null, "kernel_initializer": {"config": {"mode": "fan_avg", "distribution": "uniform", "scale": 1.0, "seed": null}, "class_name": "VarianceScaling"}, "activation": "elu"}, "class_name": "Conv2D", "name": "conv2d_2", "inbound_nodes": [[["conv2d_1", 0, 0, {}]]]}, {"config": {"trainable": true, "bias_initializer": {"config": {}, "class_name": "Zeros"}, "strides": [1, 1], "use_bias": true, "kernel_regularizer": null, "bias_regularizer": null, "activity_regularizer": null, "dilation_rate": [1, 1], "name": "conv2d_3", "filters": 16, "padding": "same", "data_format": "channels_last", "bias_constraint": null, "kernel_size": [1, 1], "kernel_constraint": null, "kernel_initializer": {"config": {"mode": "fan_avg", "distribution": "uniform", "scale": 1.0, "seed": null}, "class_name": "VarianceScaling"}, "activation": "elu"}, "class_name": "Conv2D", "name": "conv2d_3", "inbound_nodes": [[["conv2d_2", 0, 0, {}]]]}, {"config": {"trainable": true, "padding": "same", "data_format": "channels_last", "strides": [1, 1], "pool_size": [2, 2], "name": "average_pooling2d_1"}, "class_name": "AveragePooling2D", "name": "average_pooling2d_1", "inbound_nodes": [[["conv2d_3", 0, 0, {}]]]}, {"config": {"trainable": true, "bias_initializer": {"config": {}, "class_name": "Zeros"}, "strides": [1, 1], "use_bias": true, "kernel_regularizer": null, "bias_regularizer": null, "activity_regularizer": null, "dilation_rate": [1, 1], "name": "conv2d_4", "filters": 1, "padding": "valid", "data_format": "channels_last", "bias_constraint": null, "kernel_size": [1, 1], "kernel_constraint": null, "kernel_initializer": {"config": {"mode": "fan_avg", "distribution": "uniform", "scale": 1.0, "seed": null}, "class_name": "VarianceScaling"}, "activation": "sigmoid"}, "class_name": "Conv2D", "name": "conv2d_4", "inbound_nodes": [[["average_pooling2d_1", 0, 0, {}]]]}, {"config": {"trainable": false, "bias_initializer": {"config": {}, "class_name": "Zeros"}, "strides": [1, 1], "use_bias": false, "kernel_regularizer": null, "bias_regularizer": null, "activity_regularizer": null, "dilation_rate": [1, 1], "name": "conv2d_5", "filters": 1024, "padding": "same", "data_format": "channels_last", "bias_constraint": null, "kernel_size": [1, 1], "kernel_constraint": null, "kernel_initializer": {"config": {"mode": "fan_avg", "distribution": "uniform", "scale": 1.0, "seed": null}, "class_name": "VarianceScaling"}, "activation": "linear"}, "class_name": "Conv2D", "name": "conv2d_5", "inbound_nodes": [[["conv2d_4", 0, 0, {}]]]}, {"config": {"trainable": true, "name": "multiply_1"}, "class_name": "Multiply", "name": "multiply_1", "inbound_nodes": [[["conv2d_5", 0, 0, {}], ["batch_normalization_1", 0, 0, {}]]]}, {"config": {"trainable": true, "data_format": "channels_last", "name": "global_average_pooling2d_1"}, "class_name": "GlobalAveragePooling2D", "name": "global_average_pooling2d_1", "inbound_nodes": [[["multiply_1", 0, 0, {}]]]}, {"config": {"trainable": true, "data_format": "channels_last", "name": "global_average_pooling2d_2"}, "class_name": "GlobalAveragePooling2D", "name": "global_average_pooling2d_2", "inbound_nodes": [[["conv2d_5", 0, 0, {}]]]}, {"config": {"trainable": true, "output_shape": null, "output_shape_type": "raw", "function_type": "lambda", "arguments": {}, "name": "RescaleGAP", "function": ["4wEAAAAAAAAAAQAAAAMAAABTAAAAcxAAAAB8AABkAQAZfAAAZAIAGRtTKQNO6QAAAADpAQAAAKkA\nKQHaAXhyAwAAAHIDAAAA+gh0cmFpbi5wedoIPGxhbWJkYT5+AAAAcwAAAAA=\n", null, null]}, "class_name": "Lambda", "name": "RescaleGAP", "inbound_nodes": [[["global_average_pooling2d_1", 0, 0, {}], ["global_average_pooling2d_2", 0, 0, {}]]]}, {"config": {"noise_shape": null, "trainable": true, "rate": 0.5, "name": "dropout_1", "seed": null}, "class_name": "Dropout", "name": "dropout_1", "inbound_nodes": [[["RescaleGAP", 0, 0, {}]]]}, {"config": {"trainable": true, "bias_initializer": {"config": {}, "class_name": "Zeros"}, "use_bias": true, "kernel_regularizer": null, "bias_regularizer": null, "activity_regularizer": null, "name": "dense_1", "units": 128, "bias_constraint": null, "kernel_initializer": {"config": {"mode": "fan_avg", "distribution": "uniform", "scale": 1.0, "seed": null}, "class_name": "VarianceScaling"}, "kernel_constraint": null, "activation": "elu"}, "class_name": "Dense", "name": "dense_1", "inbound_nodes": [[["dropout_1", 0, 0, {}]]]}, {"config": {"noise_shape": null, "trainable": true, "rate": 0.5, "name": "dropout_2", "seed": null}, "class_name": "Dropout", "name": "dropout_2", "inbound_nodes": [[["dense_1", 0, 0, {}]]]}, {"config": {"trainable": true, "bias_initializer": {"config": {}, "class_name": "Zeros"}, "use_bias": true, "kernel_regularizer": null, "bias_regularizer": null, "activity_regularizer": null, "name": "dense_2", "units": 13, "bias_constraint": null, "kernel_initializer": {"config": {"mode": "fan_avg", "distribution": "uniform", "scale": 1.0, "seed": null}, "class_name": "VarianceScaling"}, "kernel_constraint": null, "activation": "sigmoid"}, "class_name": "Dense", "name": "dense_2", "inbound_nodes": [[["dropout_2", 0, 0, {}]]]}], "output_layers": [["dense_2", 0, 0]], "name": "attention_model"}, "class_name": "Model"}], "name": "combined_model"}, "class_name": "Sequential", "backend": "tensorflow"}